checkpoints/landmarks_mlp.pt (torch, 227767 bytes, 14 tensors)

net.0.weight f4 [256, 63]
000000 8f 24 f1 bd de 58 fa bd 11 77 73 bd 17 da c2 3c
       -0.11774551 -0.12223981 -0.059439722 0.023785634
000010 bf ca 81 bd 41 5e 2e bc 29 cb 81 bd 28 e6 b8 3d
       -0.06337499 -0.010642589 -0.06337578 0.09028274
000020 70 39 26 3d 8c 5b 3b 3d 8b 20 ee 3d 3c 94 da 3d
       0.04058212 0.045741603 0.11627301 0.10672805
000030 31 c4 d3 bd 90 28 2b 3e 71 81 e0 bb 04 49 e2 3c
       -0.10340155 0.16714692 -0.006851368 0.027622707
000040 5e c5 ec bc ef bc 9d bc 35 2a 8b 3d 73 73 cc bd
       -0.028902706 -0.01925513 0.0679516 -0.09982958
000050 f7 43 de bd 36 1e bf bc f9 90 51 bc f7 7f 3c bd
       -0.10852807 -0.023329835 -0.012790912 -0.046020474
000060 36 21 de 3d 28 13 42 b9 92 8b c6 3d f4 dd fd 3c
       0.10846178 -0.00018508418 0.0969459 0.030989625
000070 44 96 bd bc 34 55 8d bd 1a 2d 85 bd 00 01 a9 bd
       -0.023142941 -0.06901017 -0.06502743 -0.08252144
000080 b5 bb 8f 3d 22 f1 0b bd 8e db 44 bc 57 76 bc 3d
       0.07018224 -0.03416551 -0.012015237 0.09202259
000090 b2 50 03 be 55 7a a4 bd 19 fd e5 bd a1 33 aa 3d
       -0.12823752 -0.080311455 -0.11229915 0.08310629
0000a0 12 f4 1f bc c4 1b 54 bd 8f ec c6 bd ca bf a7 3d
       -0.009762781 -0.051784292 -0.09713089 0.08190878
0000b0 5e 49 4a 3c bc bc ce 3c 73 70 2d 3d 75 be 7d 3d
       0.012346594 0.02523648 0.042343568 0.061949212
0000c0 11 e3 38 3d d4 0c 8b 3c 0a b1 c8 3c cb 3c 8c bd
       0.045138422 0.01697389 0.024498481 -0.06847533
0000d0 05 db 9b bd b1 c7 e7 bc a7 1b a2 3c e7 2d 9e bd
       -0.07610134 -0.028293462 0.019788576 -0.07723599
0000e0 76 1d d6 bd f4 19 5e 3d 5c 18 c0 3d 37 2b 94 3c
       -0.10454838 0.05422397 0.09379646 0.018087013
0000f0 c1 a5 77 3d f9 ec c5 bd 35 7a f4 3c b6 ca be bd
       0.06046081 -0.096643396 0.02984343 -0.09316008
000100 66 86 2b bb 48 0a e8 3d 27 41 04 3d fb d4 aa bd
       -0.0026172637 0.11330086 0.032288697 -0.08341404
000110 ed 31 25 3e cf f6 01 bd 38 ea 92 3d 9c 11 1b 3e
       0.16132326 -0.031729516 0.0717358 0.15143436
000120 28 47 a3 bc dd 15 75 bd 24 70 b6 3c 2f 99 b5 bd
       -0.01993139 -0.059835304 0.02227027 -0.08867108
000130 d5 97 8f 3d b4 1b c6 bd 36 e5 fc 3d 0c d4 b0 bd
       0.070113815 -0.09673253 0.12348406 -0.08634195
000140 d1 73 a1 3d a8 2e 58 3d a4 18 0e 3d 9c 18 08 3d
       0.07883418 0.05277887 0.034691468 0.033226594
000150 e8 ca 9a 3d e2 04 de bd 00 1f 2c bc 34 d9 7a bc
       0.075582325 -0.10840775 -0.010505438 -0.015310574
000160 8b 10 bf bd bc 5d df bd d5 04 9d bd 57 6b 11 bd
       -0.09329327 -0.1090655 -0.07666937 -0.035502758
000170 85 0d a4 bd 64 58 6a 3d f6 7b 4c bd ee 9f 97 bd
       -0.08010391 0.057213202 -0.049922906 -0.07403551
000180 51 c9 cc bd ca ca d6 3d c9 23 a6 3d 42 c7 de bd
       -0.099993356 0.10487898 0.08112294 -0.10877849
000190 1d 2a b7 3c c6 ff 63 bd 08 f3 ab 3d 5a 9c a1 3b
       0.022358948 -0.055663846 0.08395964 0.0049319686
0001a0 2a 86 70 bd f0 7c 0b 3e cf cf df bc 4e 6f be bc
       -0.0587217 0.13621879 -0.02732077 -0.023246434
0001b0 8a 40 9a bc f8 50 08 bd 1a 36 91 3c bf cf 80 bb
       -0.018829603 -0.033280343 0.017725993 -0.0039310153
0001c0 c5 4d 86 3b b9 92 48 3c e3 44 4d 3d 95 01 8d 3b
       0.0040986263 0.012242013 0.050114524 0.004303167
0001d0 1d 7f 5b 3c 20 3d 80 3c d1 0d af 3d d3 f7 7e 3d
       0.013397005 0.015654147 0.08547557 0.062248062
0001e0 90 b1 97 bc b0 cc 39 bd 62 c5 20 bd 22 19 94 3d
       -0.018517286 -0.04536122 -0.03925074 0.07231356
0001f0 a5 22 9b bd fc 9c ce bc e5 7e 8e 3c 35 3f 7b bd
       -0.07574967 -0.02522134 0.017394492 -0.061339576
000200 b1 da f7 3c 73 46 06 3d 25 10 b0 bd 70 58 83 3d
       0.030255647 0.03278203 -0.08596829 0.064133525
000210 be f7 64 3d 38 62 c1 3a f8 41 00 3e ad 1a 1f be
       0.055900328 0.0014754003 0.12525165 -0.1553752
000220 bd 08 97 bc e3 76 fc 3c 07 92 1c be 0f e3 8d bd
       -0.018436784 0.030818408 -0.1529008 -0.069280736
000230 88 17 f5 3d 2c 04 0a 3d 34 f8 7a bc 4d 9c a4 3d
       0.11967379 0.033695385 -0.015317965 0.080376245
000240 1b 63 29 bc 40 17 e1 3c 6e ee df bd 03 f6 f3 3d
       -0.01033857 0.027476907 -0.10934149 0.119121574
000250 75 ff 87 3d c5 ed f2 3d e5 81 44 3d f2 22 04 3e
       0.066405214 0.11861757 0.04797544 0.12903956
000260 d0 02 f7 3d 19 73 c9 bc 43 cb 17 3d 76 54 35 bc
       0.12061083 -0.024591016 0.03705908 -0.0110675
000270 77 6e 41 3c 85 17 ab 3c 03 75 d3 3d e2 06 c1 3d
       0.011806122 0.020885238 0.103250526 0.09425141
000280 3c 93 a8 3d f6 f3 06 bd 0a 06 b2 bd d3 be 2c 3d
       0.08231208 -0.032947503 -0.08692558 0.04217417
000290 11 47 d5 bc 5a 2a 7d 3c 5e c8 e7 bd 22 69 89 3d
       -0.026034864 0.015451992 -0.11317514 0.067095056
0002a0 11 f6 c1 bd 00 81 51 3c 9d af 2f bd f3 41 84 3d
       -0.094707616 0.012787104 -0.042892087 0.06457891
0002b0 1d 7f c0 3c 9e 5c 41 3d 6a 94 de bb 8e 26 be bc
       0.023498112 0.047207467 -0.0067925947 -0.023211744
0002c0 3c f1 04 be fd 42 34 3d 69 db c4 3d 09 6a 23 bc
       -0.12982649 0.044009198 0.09612162 -0.009974011
0002d0 e4 08 be 3d 66 a9 da bc 5e b6 28 bd f7 52 9f 3d
       0.092790395 -0.026692104 -0.041189544 0.07779496
0002e0 aa 33 ec bb 26 c3 24 be 01 04 14 be 1e 21 aa bd
       -0.0072083073 -0.16090068 -0.14454652 -0.08307098
0002f0 38 66 10 be 2f 4a fe 3d 2e c6 9d 3d 32 f7 fd 3d
       -0.14101493 0.12416493 0.077038154 0.124006644
000300 53 4c fd 3b 3b f9 00 be f5 28 53 3e d9 22 98 bd
       0.007730046 -0.12595074 0.20621093 -0.07428522
000310 be e7 d6 3c 2b 0e f7 3d 1f e0 d7 3d 18 b3 86 3a
       0.02623355 0.12063249 0.105407946 0.0010276763
000320 90 c8 ac bd 4c 28 12 be 53 89 0e 3e 46 e5 33 bd
       -0.08436692 -0.14273185 0.13919573 -0.043919824
000330 79 05 7e 3b 1f c9 62 bd be 46 96 bd 10 22 8b 3d
       0.0038760586 -0.055367585 -0.07337712 0.06793606
000340 32 a7 88 3d b4 e5 be bd 70 d5 6d bd 48 df 82 bc
       0.06672515 -0.09321156 -0.058064878 -0.01597561
000350 b2 c9 78 3c d3 6e 73 3d 1e b4 2b 3e 47 cf 6d 3d
       0.015184807 0.059431862 0.16767928 0.058059003
000360 c7 02 26 bd fe 42 8b 3b 63 85 09 bd fd 8f 3f 3d
       -0.040529992 0.0042499295 -0.033574473 0.046768177
000370 a2 3c 00 be 8c 2d a2 3c dc 68 a0 3d 70 6c a6 bd
       -0.1252313 0.019797109 0.078325 -0.081261516
000380 c7 7d da 3c 99 db ed bc b8 fb bc bd 53 53 45 3b
       0.026671303 -0.029035376 -0.09227699 0.003010948
000390 c7 b3 c7 bd 77 8d 06 be e2 2a 78 bd cf bf 1d 3d
       -0.09751087 -0.13139902 -0.06058777 0.038513
0003a0 c1 6c 9f bd 30 67 30 bd ee 9a a5 bd 47 79 01 bd
       -0.07784415 -0.043067157 -0.08086191 -0.0316098
0003b0 fa 8d 24 3c f2 45 6a 3d 7b 4c 16 bc 8f 2a a9 3d
       0.0100436155 0.05719561 -0.009173508 0.082600705
0003c0 b4 57 c0 bd ed ba e5 3d 14 42 84 3d a3 db f1 bd
       -0.09391728 0.11217294 0.06457916 -0.118094705
0003d0 36 f9 a1 3d 22 c9 18 bd 1b bf ac bd f6 f1 32 bd
       0.07908861 -0.03730119 -0.08434888 -0.043687783
0003e0 76 51 d0 3d 46 c0 af bc 4c bc 85 3d e9 2f 14 3e
       0.101717874 -0.021453988 0.065300554 0.14471401
0003f0 dd ce f3 3d 5a 9e 05 3d 46 cd 6b 3c 16 18 d1 bc
       0.119046904 0.03262172 0.014392203 -0.02552418

net.0.bias f4 [256]
000000 43 fb e2 bd 55 f2 62 3d b0 f9 ea bb a3 74 b3 3d
       -0.110830806 0.055406887 -0.0071708784 0.08762481
000010 c9 51 8d 3d 2f b0 fc bb 01 09 e1 bd 79 1b 0d 3d
       0.06900365 -0.0077114324 -0.109880455 0.034450028
000020 99 a9 cc bd ff 86 84 bd 65 8d 01 3d 2a 95 fe bc
       -0.09993286 -0.06471061 0.031628985 -0.031076986
000030 f3 80 ef 3d 9b 40 5e bd 23 a9 cf bd ea 32 ae 3d
       0.11694517 -0.05426083 -0.10139682 0.08505805
000040 b4 14 e0 bd 1d f4 db 3d dd 84 d6 bc 71 7e 51 3c
       -0.10941449 0.1073992 -0.026186401 0.012786494
000050 c6 34 d1 3d 7f 79 cb bc 10 66 f9 3c 90 0a 90 3d
       0.10215144 -0.024838207 0.030444175 0.07033265
000060 ea 87 c4 bd ee 82 8e bc de c5 eb bd 69 74 ca 3d
       -0.09596236 -0.017396417 -0.115123495 0.09885485
000070 89 74 bc bb 45 6e a5 bd 28 a8 ff bd 2d 02 dd 3d
       -0.0057511968 -0.08077673 -0.12483245 0.107914306
000080 67 13 97 bd 2f a5 6d bd 4a 9d b9 3c c9 37 19 3d
       -0.073767476 -0.05801886 0.02265801 0.037406716
000090 d2 56 25 bc 3c f9 5b bd c3 c8 33 bd a4 61 e3 bc
       -0.0100915 -0.053704485 -0.043892633 -0.02775652
0000a0 1f 0c bb bc e7 78 a7 3b 2b 00 54 3d e4 98 04 bd
       -0.022832928 0.005110848 0.051757973 -0.03237237
0000b0 5c f8 fd bd 08 17 71 bd 24 f6 dd bd 91 1f f2 bd
       -0.124008864 -0.058859855 -0.10837963 -0.11822427
0000c0 79 10 c4 3d 9a 65 cc bc d7 ea ec bd c6 39 e4 3d
       0.095734544 -0.024950791 -0.1156823 0.11143832
0000d0 86 39 0f 3b c6 69 a0 3d ed 0b ba bd 1d 63 5e 3d
       0.0021854355 0.07832675 -0.09084306 0.05429374
0000e0 79 0a ca 3c 00 65 ef bd f9 ea a9 bc 22 b4 f6 3c
       0.024663197 -0.11689186 -0.020741927 0.03011519
0000f0 c5 46 08 be 6e 89 ce 3d cd 23 fa bc d6 16 d0 bb
       -0.13308246 0.100848064 -0.03053465 -0.0063503785
000100 99 c8 96 bc 0a 3a 48 bd 2f 02 3c bd 19 da a0 bd
       -0.0184062 -0.048883475 -0.04590052 -0.07854099
000110 d5 6b 03 3e 1f 43 94 3c f2 22 c3 bd 14 fa 78 bd
       0.12834103 0.018098412 -0.0952815 -0.060785368
000120 1f 97 47 3d ce 43 dc 3d ed ae c7 bd f6 cb 0f 3d
       0.048728105 0.1075512 -0.09750161 0.03510662
000130 bf a1 59 3d 16 91 62 3d 4e f3 0d 3d bf 85 97 3d
       0.05313277 0.055314146 0.03465586 0.07398557
000140 09 dc fa 3d b2 06 08 3e 3b 47 03 3d 70 3e 8a 3d
       0.122489996 0.13283804 0.032050353 0.0675019
000150 ea d0 3e 3d a7 2a ca bd 9d 06 54 bd 03 8b e3 3d
       0.046585955 -0.098714165 -0.05176412 0.11110499
000160 eb 1c 54 bd f2 10 c5 3d e8 5e ba bd 35 34 b6 bd
       -0.05178539 0.09622373 -0.09100133 -0.088966765
000170 c2 4d 78 bd c2 ed ba bd 43 f0 b4 bd 6c ed 56 bd
       -0.06062103 -0.0912738 -0.08834889 -0.052472517
000180 c0 bd 93 bc 09 28 32 b9 a1 c6 9e 3d 68 66 a2 3d
       -0.018034816 -0.00016990317 0.07752729 0.07929689
000190 0e 2e 55 3d 40 fa 98 bc 39 49 2f 3d 15 8b af 3d
       0.052045874 -0.018674016 0.04279444 0.0857145
0001a0 55 68 07 bd 08 24 1b 3d 89 a3 ce 3d d8 02 59 3d
       -0.033058483 0.03787616 0.100897856 0.052981228
0001b0 2a da ec 3d 03 da 0d 3c 1c e2 4f 3d 1c b6 f4 bd
       0.11565049 0.008657935 0.050752744 -0.11948797
0001c0 b1 ab 4c 3d 89 b1 a7 bb b8 ce c8 3d 7f bc 59 bc
       0.049968425 -0.0051175994 0.098050535 -0.01328957
0001d0 7c 40 75 3d d7 a9 af bd de 05 ac 3d 30 43 46 bc
       0.05987595 -0.08577316 0.083995566 -0.01210098
0001e0 ad f3 ff 3c 64 8d c1 3d 36 db 61 bd 60 e7 e1 3d
       0.031244123 0.09450796 -0.055140696 0.110304594
0001f0 48 89 09 3c eb bb b4 3d 43 a5 f0 bd da c4 cc bd
       0.008394547 0.08824905 -0.11750271 -0.09998484
000200 d5 9c 36 bc 6b b3 09 3d 24 8e c1 3d 57 e3 77 bd
       -0.01114579 0.033618372 0.09450939 -0.060519543
000210 30 ba c3 bd d1 fd b7 bc fe 49 22 3c a9 e0 fa 3d
       -0.09556997 -0.022459896 0.009905336 0.12249882
000220 7a b3 0b 3c e7 1b 8c 3d 6e 35 e8 bb 73 d2 dd 3d
       0.008526677 0.068412594 -0.0070864474 0.10831156
000230 2c fc 5b bd 47 95 fb 3d 01 d5 4d 3d e0 1d a6 bd
       -0.053707287 0.12284332 0.050251964 -0.08111167
000240 f9 49 a5 3d 9c e5 f4 3d 59 6e b5 bd b3 a3 0b be
       0.0807075 0.11957857 -0.08858938 -0.13636665
000250 57 9a b2 bd 07 a4 d0 bc 81 95 73 bd f6 d8 b8 3d
       -0.08720844 -0.02546884 -0.05946875 0.09025757
000260 14 52 14 bd 39 d4 fc bd 6d 55 92 3d f4 06 34 bd
       -0.03621109 -0.12345166 0.071452 -0.043951944
000270 03 88 f2 3d 98 d6 a8 3d 00 44 df 3d 04 8e b4 3c
       0.118423484 0.082440555 0.10901642 0.022040375
000280 d7 e5 22 bd d8 8f 20 ba 61 27 87 3d 72 f6 71 bd
       -0.039769974 -0.000612495 0.06599308 -0.05907292
000290 57 05 d4 3d 7d 94 da 3d a0 ee c8 3b 61 d2 62 bc
       0.10352581 0.10672853 0.006131962 -0.013844104
0002a0 32 9a 37 3d 13 fa cc bd 4e cc 16 bd fc d6 1f 3d
       0.044824786 -0.10008635 -0.036815934 0.039023384
0002b0 87 01 39 3d b6 74 bc 3d 07 a7 0c be 05 63 5d 3b
       0.045167472 0.09201948 -0.13735591 0.0033780944
0002c0 d2 2c 56 3d c2 fe a4 bd 11 41 a2 3d da dc 8b 3d
       0.052288838 -0.08056404 0.07922567 0.068292335
0002d0 84 ff 49 3d e5 b2 12 3d ec 0d 1c 3c 97 61 2e 3d
       0.049315944 0.03581514 0.009524804 0.042573538
0002e0 f5 1b 89 bd 53 d8 2d 3d 9d f6 e3 3c 17 18 4d 3d
       -0.066947855 0.04244263 0.027827555 0.050071802
0002f0 58 14 22 3d 11 d2 8a bd 54 b2 1f bd dc 41 5b bd
       0.039570183 -0.06778348 -0.038988426 -0.053529605
000300 6d 2b 8a bd f9 88 27 bd 64 4e b4 3d e6 35 a4 bd
       -0.06746564 -0.04090211 0.08804014 -0.08018093
000310 53 24 fb bd 5e 0f d3 3d 09 b5 a8 39 d1 92 34 3d
       -0.12262788 0.103056654 0.0003217834 0.044085328
000320 b1 03 d4 3c b5 ca d2 3d 75 69 29 bd 55 21 d2 3d
       0.025880666 0.102925695 -0.041360337 0.10260264
000330 a4 14 2d 3d 65 f2 8a 3d f4 9f 8a 3d c8 97 41 3d
       0.042256013 0.06784514 0.0676879 0.04726389
000340 00 84 50 3d fc 90 aa bd bb 6e aa 3d 61 db 01 be
       0.050907135 -0.08328435 0.083219014 -0.12681343
000350 e4 e2 6e 3d 88 97 ac 3d f4 b7 80 3d d6 56 d2 3d
       0.05832185 0.0842734 0.06285086 0.10270469
000360 9d 39 e4 3d 68 09 c7 3b 92 fd 8d bb 1a 3f db bd
       0.11143801 0.0060741194 -0.0043332065 -0.10705395
000370 85 52 96 3b 8b 0e 01 bd 35 30 db 3d d8 01 fb 3c
       0.004587474 -0.03150801 0.10702554 0.030640528
000380 65 24 99 3c ca d2 ed 3d f4 9b d6 bd ef 2a f7 3b
       0.018694112 0.116124704 -0.104789644 0.00754296
000390 f9 08 ce bd e8 df c3 3d 50 8a 91 bd 3b 25 a1 bd
       -0.10060305 0.09564191 -0.07106459 -0.07868429
0003a0 c3 a2 92 3d d0 87 7c bd 38 89 de 3d 06 e4 80 3d
       0.071599506 -0.06165296 0.10866016 0.06293492
0003b0 99 fa 8c bb bc 99 9e bc 03 0d 50 3c 26 1d 38 bd
       -0.0043023345 -0.019360416 0.012698415 -0.044949673
0003c0 b6 1f a6 3a 3c 81 5a 3d e1 10 d3 bd 61 54 0a 3e
       0.0012674246 0.053345904 -0.10305954 0.1350875
0003d0 c6 37 6b bd 4f 40 cb bd 82 5d e6 3c 23 b0 8e 3d
       -0.057426237 -0.09924375 0.02812076 0.06967189
0003e0 02 79 b6 bd e3 b0 9e bd 9c fa f6 bd 67 f2 d2 bd
       -0.08909799 -0.07748582 -0.12059519 -0.10300141
0003f0 9a 25 a2 bd 9d 70 fb bd 4c 22 7c 3d 70 a0 3a bd
       -0.07917328 -0.12277339 0.061556146 -0.04556316

net.1.weight f4 [256]
000000 fc 28 7e 3f 4d 69 83 3f 40 fe 70 3f ba c8 7e 3f
       0.9928129 1.026651 0.94137955 0.99525034
000010 d1 16 71 3f 39 17 79 3f 23 a3 69 3f 38 66 7f 3f
       0.9417544 0.9730106 0.9126455 0.9976535
000020 11 6b 84 3f 87 1b 78 3f 0e 35 7b 3f ab e2 80 3f
       1.0345174 0.96917003 0.9812783 1.0069174
000030 16 8a 77 3f 9b 28 86 3f e0 7c 7a 3f 8b 75 65 3f
       0.9669508 1.0481142 0.97846794 0.8963248
000040 c4 59 7c 3f 19 a4 7c 3f bf 5e 80 3f e9 80 85 3f
       0.9857447 0.98687893 1.0028914 1.0429965
000050 84 d7 7f 3f cd 52 87 3f 18 7e 8a 3f be 93 83 3f
       0.99938226 1.0572144 1.0819731 1.0279462
000060 8b ef 80 3f 8c 7f 7b 3f 93 2f 80 3f c2 8b 83 3f
       1.0073103 0.98241496 1.0014518 1.0277026
000070 fa 29 85 3f 3c 0e 88 3f d4 2c 87 3f 0e ad 79 3f
       1.0403435 1.0629344 1.0560555 0.97529685
000080 b0 21 7b 3f 21 15 82 3f c3 f2 85 3f 35 38 6a 3f
       0.9809828 1.0162698 1.046471 0.91492015
000090 fe 9e 76 3f d8 2b 81 3f 08 4a 7f 3f e0 e2 86 3f
       0.9633635 1.0091505 0.9972234 1.0537987
0000a0 78 d6 82 3f 99 3c 83 3f bf 52 75 3f a3 fe 76 3f
       1.0221701 1.0252868 0.95829386 0.96482295
0000b0 83 28 6e 3f 1b 60 78 3f 2a 48 82 3f 72 4a 80 3f
       0.93030566 0.97021645 1.0178273 1.0022719
0000c0 cc 7f 83 3f e3 d0 87 3f b5 92 90 3f 2a df 81 3f
       1.0273376 1.0610622 1.1294771 1.0146229
0000d0 54 14 82 3f ce e1 84 3f 7c 08 7d 3f a0 86 7c 3f
       1.0162454 1.038141 0.9884107 0.9864292
0000e0 c7 2d 7a 3f f7 5b 84 3f 1f 22 82 3f 69 62 84 3f
       0.977261 1.0340565 1.0166663 1.0342532
0000f0 2a 38 85 3f 68 a3 84 3f 68 62 7c 3f 70 03 7f 3f
       1.0407765 1.0362368 0.98587656 0.9961462
000100 a5 9a 83 3f 81 3e 8b 3f 8a e6 7e 3f ee 8c 78 3f
       1.0281569 1.087845 0.99570525 0.9709004
000110 54 7a 83 3f f5 f8 7a 3f c8 20 7b 3f 9a 99 77 3f
       1.0271707 0.9803613 0.98096895 0.9671875
000120 91 91 77 3f 92 7d 80 3f f3 59 73 3f 8e 0e 7d 3f
       0.9670649 1.0038321 0.95059127 0.98850334
000130 41 cd 88 3f 55 4b 8c 3f fc de 81 3f c7 8a 81 3f
       1.0687639 1.096049 1.0146174 1.0120476
000140 de 36 83 3f 8d 0d 87 3f 51 c4 70 3f 77 a3 85 3f
       1.0251119 1.055101 0.94049555 1.044051
000150 29 27 76 3f a6 14 74 3f fc 9f 69 3f a9 55 7a 3f
       0.96153504 0.95344007 0.9125974 0.9778696
000160 08 16 7b 3f 5d cb 6e 3f f7 34 84 3f 19 e8 6d 3f
       0.9808049 0.9327906 1.0328664 0.9293228
000170 95 78 6e 3f 5b 49 8f 3f a4 8f 80 3f d5 40 7c 3f
       0.93152744 1.1194261 1.0043836 0.98536426
000180 3c 32 79 3f af aa 7d 3f e0 a4 81 3f 9c 2b 82 3f
       0.97342277 0.9908857 1.0128441 1.0169559
000190 d9 4b 7e 3f f5 0e 89 3f b1 e5 75 3f 55 7f 82 3f
       0.99334484 1.070769 0.96053606 1.0195109
0001a0 5c b8 6f 3f 65 83 83 3f 3b ee 71 3f 25 66 81 3f
       0.93640685 1.0274473 0.94504136 1.0109297
0001b0 66 fb 83 3f bd e5 75 3f 19 ef 77 3f e6 4d 80 3f
       1.0311096 0.9605368 0.9684921 1.0023773
0001c0 c8 78 82 3f 94 64 80 3f 77 2e 7d 3f d7 00 86 3f
       1.019311 1.0030694 0.98899025 1.0469006
0001d0 4e 25 7c 3f 3c 7c 6f 3f 8c a4 8e 3f de 00 7b 3f
       0.9849442 0.9354894 1.1143966 0.980482
0001e0 66 bc 6f 3f 5e b0 86 3f 52 c4 7e 3f c6 00 87 3f
       0.9364685 1.0522573 0.9951831 1.0547111
0001f0 0c f3 76 3f 2a 21 7f 3f bc dc 7b 3f 2b 92 84 3f
       0.9646461 0.9965998 0.9838369 1.0357107
000200 e6 f4 76 3f c2 36 82 3f b8 c8 83 3f 4b ee 78 3f
       0.96467435 1.0172961 1.029563 0.97238606
000210 1e e2 6e 3f eb f5 85 3f fe 54 76 3f 78 72 79 3f
       0.9331378 1.0465673 0.9622344 0.9744029
000220 9d 6f 79 3f 6b f7 7c 3f c8 9b 82 3f 45 93 75 3f
       0.97435933 0.9881503 1.0203791 0.9592784
000230 c6 f1 73 3f 5f 1f 79 3f 85 40 7b 3f 7f dc 7d 3f
       0.9529079 0.97313493 0.98145324 0.99164575
000240 02 d3 81 3f 83 03 7b 3f 0e 26 71 3f 2d 6c 85 3f
       1.014252 0.98052233 0.9419869 1.0423638
000250 1a 7e 6c 3f a5 b1 7b 3f d2 b9 6f 3f ef f0 6a 3f
       0.92379916 0.9831794 0.93642914 0.91773885
000260 2f 66 7b 3f 17 7b 82 3f 74 39 85 3f 3f bb 7b 3f
       0.98202795 1.0193814 1.0408158 0.9833259
000270 a4 ce 77 3f 80 af 84 3f b3 35 86 3f aa 89 86 3f
       0.96799684 1.0366058 1.0485138 1.0510762
000280 b7 5e 86 3f a7 30 81 3f e0 56 82 3f 19 fe 6e 3f
       1.0497655 1.0092973 1.0182762 0.9335647
000290 a3 90 73 3f b0 d1 8d 3f fa e2 80 3f fb 2d 71 3f
       0.95142573 1.1079617 1.0069268 0.94210786
0002a0 0c 3f 80 3f 24 65 77 3f 51 c4 75 3f 6c 9d 88 3f
       1.001924 0.96638703 0.9600268 1.0673041
0002b0 37 99 84 3f ce 8d 67 3f 0b ab 81 3f a6 36 77 3f
       1.0359257 0.9045075 1.0130323 0.9656776
0002c0 67 07 84 3f 45 8f 7e 3f 99 62 86 3f 8f 27 85 3f
       1.0314759 0.9943736 1.049884 1.0402697
0002d0 8c 06 76 3f 09 ad 83 3f 7d 01 94 3f 37 3e 80 3f
       0.9610374 1.0287181 1.1562954 1.0018986
0002e0 e5 a2 81 3f 0f 8c 7c 3f 24 49 87 3f e2 8d 7c 3f
       1.0127836 0.9865121 1.0569196 0.98653996
0002f0 6b c0 84 3f af d9 85 3f 77 6d 75 3f 1b 59 6f 3f
       1.0371221 1.0457057 0.95870155 0.9349534
000300 ff 9e 7d 3f 2c 70 82 3f d6 0f 78 3f 3f aa 80 3f
       0.99070734 1.0190482 0.96899164 1.0051955
000310 76 78 83 3f da 2c 81 3f 57 cd 75 3f 45 89 79 3f
       1.0271137 1.0091813 0.9601645 0.9747508
000320 67 7d 78 3f 41 71 82 3f e8 d8 74 3f 21 e7 87 3f
       0.9706635 1.0190812 0.9564347 1.061741
000330 dd 7d 7c 3f fc 01 7e 3f eb cb 78 3f 74 6f 80 3f
       0.9862955 0.9922178 0.97186154 1.0034013
000340 ac b3 82 3f 29 0f 81 3f 18 3c 7a 3f 4d e8 7b 3f
       1.0211082 1.0082752 0.97747946 0.9840134
000350 13 e7 7d 3f 86 5c 7b 3f 12 20 84 3f b3 85 87 3f
       0.99180716 0.98188055 1.0322287 1.0587677
000360 64 28 86 3f fe 95 7c 3f fd 9e 7d 3f d4 ef 79 3f
       1.0481076 0.9866637 0.9907072 0.97631574
000370 02 77 7a 3f ef 43 80 3f 85 ec 73 3f 61 9b 7c 3f
       0.9783784 1.0020732 0.95282775 0.9867459
000380 74 de 7c 3f c1 f6 78 3f c5 6e 7c 3f 45 8b 71 3f
       0.98776937 0.97251517 0.9860652 0.94353133
000390 d1 4d 7a 3f 9d 5a 88 3f d1 22 7f 3f 45 53 75 3f
       0.9777499 1.0652653 0.996625 0.95830184
0003a0 e9 6a 72 3f 01 6e 79 3f a0 4c 7e 3f 19 d2 80 3f
       0.9469438 0.9743348 0.9933567 1.0064117
0003b0 2f d2 76 3f 06 01 80 3f 22 9e 88 3f 69 75 7f 3f
       0.96414465 1.0000312 1.0673258 0.9978853
0003c0 5b 8e 81 3f 92 07 85 3f e8 50 7b 3f 8e 15 80 3f
       1.0121568 1.0392935 0.9817033 1.0006578
0003d0 37 58 8a 3f b7 61 7d 3f 1d 78 7f 3f 6f c5 6a 3f
       1.0808171 0.98977226 0.99792653 0.9170751
0003e0 3c 9d 7d 3f 79 3e 76 3f 42 60 61 3f cb f2 7c 3f
       0.99068046 0.96189076 0.880375 0.9880797
0003f0 c5 af 6f 3f ae 3a 7c 3f df 2b 76 3f 63 9b 75 3f
       0.9362758 0.9852704 0.9616069 0.95940226

net.1.bias f4 [256]
000000 a6 0c 13 be d9 b1 80 bc bc 9a 80 bd ff 5a 0c be
       -0.14360294 -0.015709804 -0.06279513 -0.13706587
000010 85 dc 65 bd 8a c5 b4 bd e0 7b 9a bd d2 7b 49 bc
       -0.056118507 -0.0882674 -0.075431585 -0.0122975875
000020 88 bc 00 be 41 b8 f8 bd 89 98 c3 bd 2f 54 69 bd
       -0.12571919 -0.12144519 -0.09550578 -0.05696505
000030 2a 0f b5 bd 7a e1 e6 bd 20 91 bb bd ee 11 ca bd
       -0.08840783 -0.11273475 -0.0915854 -0.09866701
000040 d9 68 88 bd 43 fb 07 be 08 68 38 bc d4 de ae bd
       -0.06660623 -0.13279442 -0.011255272 -0.08538595
000050 fd 4a b9 bd c9 ae c2 bd 66 a1 e8 ba bf b9 ff bd
       -0.09047506 -0.09505994 -0.0017748296 -0.124866
000060 eb 5b 2c bd d1 18 d5 bd 29 18 cc bd e1 c4 f5 bd
       -0.042079847 -0.10405124 -0.09965546 -0.12000442
000070 f9 b2 7f bd 7a 98 ad bd bb 2a c2 bd 7c 13 e1 bd
       -0.06242654 -0.08476348 -0.094808064 -0.109900445
000080 fe 3c c5 bd 86 78 13 be 27 65 e8 bd d0 74 b8 bd
       -0.09630774 -0.14401445 -0.11347418 -0.09006655
000090 6b f9 b7 bd a2 c2 ce bd a2 8b 58 bd 60 00 de bd
       -0.089831196 -0.10095717 -0.05286754 -0.10839915
0000a0 65 0c 84 bd f9 78 5b bd aa 73 ca bd d4 01 a3 bd
       -0.064476766 -0.053582165 -0.098853424 -0.07959333
0000b0 e9 02 d8 bd 51 d5 88 bd e8 9e 71 bd 5c 95 f8 bc
       -0.1054743 -0.06681312 -0.058989435 -0.030344658
0000c0 e5 bc 87 bd 41 16 aa bd 8d 8b 34 bd a5 91 8b bd
       -0.06627826 -0.08305026 -0.0440784 -0.06814889
0000d0 9f c1 b7 bd 0e be ce bd d9 d3 8c bd 1f 85 81 bd
       -0.08972477 -0.10094844 -0.06876344 -0.06324219
0000e0 67 77 cf bd 0c fc 18 be 75 37 d7 bd e7 dd 99 bd
       -0.10130196 -0.14939898 -0.105086245 -0.07513028
0000f0 b2 15 61 bd d3 36 86 bc 3b b1 c4 bd eb 77 49 bd
       -0.05495233 -0.016383564 -0.096041165 -0.04918663
000100 4d 16 b4 bd 36 78 a7 bd 4e 2c 85 bd ae 31 98 bd
       -0.08793316 -0.08177225 -0.06502591 -0.07431351
000110 a0 de 81 bd 54 dd d0 bd a9 6b 08 be dd ca ff bc
       -0.063412905 -0.10198465 -0.13322319 -0.031224662
000120 74 d9 79 bd 7d b1 a4 bd ab c8 ad bd 03 57 8c bd
       -0.060998395 -0.08041666 -0.0848554 -0.06852534
000130 92 69 a1 bd f3 62 95 bd 2a 2d 91 bd 42 7c b3 bd
       -0.07881464 -0.07294264 -0.070886925 -0.08763935
000140 b5 e7 ca bc ea 39 d3 bd 26 f4 1c bd 1e 7a b3 bd
       -0.02476869 -0.103137806 -0.038318776 -0.087635264
000150 10 4c e6 bd b8 97 e1 bd c0 4a df bd a0 0b 4d bd
       -0.112449765 -0.11015266 -0.10902929 -0.050059915
000160 3f 0e 96 bd df 49 00 be a1 e1 ea bd cb 26 93 bd
       -0.07326936 -0.1252818 -0.114688165 -0.071851335
000170 f7 c3 dc bd b6 6c 82 bd 8d 67 09 be 34 b0 96 bd
       -0.10779565 -0.06368391 -0.13418408 -0.07357827
000180 51 be 5a bd c4 e2 ff bd 4a 20 43 bd bc fd 4b bd
       -0.053404156 -0.12494424 -0.047638215 -0.049802527
000190 af 4c e6 bd d6 46 93 bb 27 8a 01 be 7c 73 39 bd
       -0.11245095 -0.0044945283 -0.12650357 -0.04527615
0001a0 ce 01 99 bd 1e 15 e4 bd af ae e4 bd 73 e3 cb bd
       -0.07471047 -0.1113684 -0.11166131 -0.09955492
0001b0 a8 9b d3 bd 9f fb b7 bd 88 a8 c4 bd 7f 4e 12 be
       -0.103324234 -0.0898354 -0.09602457 -0.14287756
0001c0 85 41 f6 bd 9f c5 85 bd d2 93 74 bd 3d 7a b1 bd
       -0.120242156 -0.06531834 -0.059711285 -0.08665893
0001d0 c3 bc da bd 2b f6 0a bd dc cb 9d bd ef 3f ab bd
       -0.10680535 -0.03392617 -0.07704899 -0.08361804
0001e0 b7 d0 c9 bc 88 53 7a bd 47 20 ac bd 46 ac 01 be
       -0.024635656 -0.061114818 -0.08404594 -0.12663373
0001f0 4a 95 a0 bd 3c ff bf bd 71 64 bf bd 6e c4 d2 bc
       -0.07840975 -0.09374854 -0.093453296 -0.02572843
000200 a6 74 95 bd 1f ae b7 bd 00 09 7a bd bd 81 b8 bd
       -0.072976395 -0.08968758 -0.06104374 -0.090091206
000210 b9 c7 b8 bd 94 55 29 bd 6d 4d a4 bd 93 ef 9a bd
       -0.09022469 -0.04134138 -0.0802258 -0.075652264
000220 d6 66 ab bd ae e6 9c bd 00 7b 8d bd 84 d5 06 be
       -0.08369224 -0.07661186 -0.06908226 -0.13167387
000230 de ab aa bd bf 54 a3 bd 8d 74 96 bd 88 70 c9 bd
       -0.08333562 -0.079751484 -0.07346449 -0.09835917
000240 a3 44 df bd 58 66 d4 bd 55 f3 c7 bd 23 04 a7 bd
       -0.10901763 -0.10371083 -0.09763209 -0.08155086
000250 4a 06 ab bd 64 30 d2 bc 6c 13 a0 bd 6a 2f 25 bd
       -0.08350809 -0.02565784 -0.078162044 -0.04032842
000260 ef 72 41 bd e0 a9 f2 bd e2 d2 f5 bd 54 ff 87 bd
       -0.04722875 -0.11848807 -0.12003113 -0.06640497
000270 cb c7 ba bd b3 ff a4 bd 81 24 bb bd 83 54 c7 bc
       -0.09120139 -0.08056583 -0.09137822 -0.02433229
000280 09 ee ca bb db 7d 55 bd 7c 81 e6 bd 18 3e 08 be
       -0.006192927 -0.05212198 -0.11255166 -0.13304937
000290 5c 22 95 bd 27 32 c9 bd 21 57 c8 bd b9 8d b9 bd
       -0.07281944 -0.09824019 -0.097822435 -0.090602346
0002a0 60 9c a9 bd 9b 0e e8 bd fb 55 1c bc 97 74 94 bd
       -0.08281779 -0.11330911 -0.009541984 -0.072488
0002b0 bf 99 66 bd b1 e7 d8 bd 66 fa 8d bd af e7 82 bd
       -0.056298967 -0.10591067 -0.06932525 -0.063918464
0002c0 3e 86 3b bd 4a d7 d3 bd 1c ab ef bd a3 9b 4b bd
       -0.04578232 -0.103437975 -0.117025584 -0.049708974
0002d0 9a b0 ce bd 33 a6 f8 bc 77 5b 60 bd 61 9f 35 bd
       -0.10092278 -0.030352687 -0.054774728 -0.04434145
0002e0 9e 2e 05 be c3 25 99 bd b6 93 60 bd 63 49 b4 bd
       -0.13006064 -0.074779056 -0.054828368 -0.0880306
0002f0 19 e2 d8 bd 34 e7 40 bd 12 92 ad bd 9f 73 b6 bd
       -0.1059 -0.047095492 -0.08475126 -0.08908772
000300 10 aa cd bd 38 d3 55 bd 73 3a 9f bd 9b e0 01 be
       -0.100422025 -0.052203387 -0.0777482 -0.12683336
000310 ea 5c c8 bd 2e 20 da bc af 41 7a bd f3 7c 11 bd
       -0.09783347 -0.026626673 -0.061097797 -0.03551955
000320 00 1c f5 bd 75 8c 45 bc 24 e9 fc bd 7c 7a 04 be
       -0.11968231 -0.012057413 -0.123491555 -0.12937349
000330 ee dd a7 bd 50 7d c2 bd 66 54 c4 bd 25 90 7c bd
       -0.081966266 -0.09496558 -0.0958641 -0.061660904
000340 11 81 ac bc cd 62 a3 bd f5 d6 97 bd 37 39 ae bd
       -0.021057637 -0.07977829 -0.07414047 -0.085070066
000350 0a d7 27 bd 3a a0 bc bd d6 9d ca bd 4a d4 ba bd
       -0.04097656 -0.09210248 -0.09893386 -0.09122522
000360 17 78 d5 bd 33 b4 d0 bd dc 3a 9e bd d3 b9 71 bd
       -0.10423296 -0.1019062 -0.0772607 -0.059015106
000370 6a 84 d6 bd 9b eb a0 bd e6 d9 ac bd 89 03 72 bd
       -0.10474475 -0.07857438 -0.08439998 -0.059085403
000380 22 6a c7 bd 50 fd b2 bd ed a6 da bc 99 84 ee bd
       -0.0973704 -0.08739722 -0.026690925 -0.11646385
000390 f7 c7 f0 bd 2e 70 5d bd ea b1 48 bd 6c d8 be bc
       -0.1175689 -0.05406206 -0.048997797 -0.023296557
0003a0 f3 7e 87 bd 28 38 fb bd 4f a5 a4 bd b3 a1 a7 bd
       -0.066160105 -0.1226657 -0.080393426 -0.081851386
0003b0 ee 8b d6 bd bb 40 b8 bd 31 54 a7 bd 83 4c c8 bd
       -0.10475908 -0.08996721 -0.08170355 -0.097802185
0003c0 19 7f 5c bd f7 07 ee bd e8 09 11 be f8 55 e9 bd
       -0.053832147 -0.11622613 -0.14163935 -0.1139335
0003d0 5f 20 cd bd ab 9c 1f bd f2 99 c3 bd 04 bb b4 bd
       -0.1001594 -0.03896777 -0.09550847 -0.08824733
0003e0 9c 46 6f bd af 70 93 bd d3 31 9c bd 0a a5 8e bc
       -0.058416948 -0.07199227 -0.07626691 -0.017412681
0003f0 fa 68 e8 bd 8b 6d 90 bd 0a 79 85 bd b1 8b 3a bd
       -0.11348148 -0.07052144 -0.06517227 -0.045543376

net.1.running_mean f4 [256]
000000 f7 8a 37 bd a0 13 8d 3e 93 0e dd be be 95 55 3e
       -0.04481026 0.27554035 -0.43175182 0.20857903
000010 a6 d8 46 bc 25 37 6e 3e 2e c9 29 3e 2a ad 4e be
       -0.012136614 0.23263223 0.1658065 -0.20183244
000020 4d 0c 34 3e 59 88 ff 3c ab 0b 8c 3e 2a b4 07 3e
       0.17582817 0.031192945 0.27352652 0.13252321
000030 c2 23 7f 3e e6 20 1c be f3 ed 04 be 70 c6 98 3b
       0.24915984 -0.15246925 -0.12981395 0.0046623275
000040 a3 09 8b 3d 9f 9c 9f 3d ba 70 71 bd fd ea c0 3d
       0.067889474 0.07793545 -0.058945395 0.094198205
000050 61 f8 25 3b 33 f3 83 3e 2f 99 be 3d 86 5d 99 3e
       0.0025325047 0.25771484 0.09306561 0.29954165
000060 6e c5 ad bd 0e 9b 8e 3e 27 0a 65 be f0 9c a3 3e
       -0.08484922 0.27852672 -0.22367154 0.3195567
000070 1a f3 97 3e 3a 75 e7 3d 3f 90 33 be a2 39 e9 3e
       0.2967766 0.11301656 -0.17535494 0.45551783
000080 06 b0 b6 3e c2 dd 18 be 91 0c ea 3d e2 54 6d bd
       0.3568117 -0.14928344 0.11428178 -0.05794228
000090 1a 7a 6a be ed 11 1c be 32 4e cb 3d 1c a4 9e 3d
       -0.2289814 -0.15241213 0.09927024 0.07746145
0000a0 38 59 07 be b8 45 27 3e 29 62 15 3f 2e a4 53 3e
       -0.13217628 0.1633519 0.58352906 0.20668098
0000b0 df 97 ab bd 76 28 07 be e9 7f e0 bd a9 01 28 bf
       -0.083785765 -0.13199028 -0.10961897 -0.65627533
0000c0 71 50 74 3e 9a 57 f7 bc 5a ac 83 bd a9 d7 07 3e
       0.23858811 -0.030193139 -0.06429358 0.13265862
0000d0 6b a4 91 3d 91 eb 05 3e 7e f9 35 3e 29 95 c3 3e
       0.07111438 0.13078143 0.17770955 0.38199738
0000e0 37 c1 ed be fa 73 7e be f2 b2 35 3e 5c b0 a8 3e
       -0.46436474 -0.24848929 0.17744043 0.32947052
0000f0 4c b6 21 be d6 38 01 3f 6d 51 5f 3e 3f 9a e9 be
       -0.15792197 0.5047735 0.21808405 -0.45625493
000100 e5 ce d5 3d b4 f6 3b 3d d4 8e 8b 3e ce e7 88 3d
       0.104398526 0.04588957 0.27257407 0.06684838
000110 1f b3 3a 3f 50 05 41 3e 28 1c 92 ba 67 b5 8d be
       0.7292957 0.18849683 -0.0011147307 -0.27677462
000120 a2 83 f8 3e 9a 1e 26 3f 58 85 1e 3d 00 42 3e 3f
       0.48537928 0.64890444 0.038701385 0.7431946
000130 48 14 8f 3e 4c aa 70 3e 73 77 f7 3d ac 76 34 3e
       0.2794516 0.23502463 0.1208333 0.17623395
000140 41 93 08 3f 7d 89 bf 3e 0a a4 84 3e 34 ba 56 3e
       0.5334969 0.37409583 0.25906402 0.20969468
000150 b9 bf c5 bd 9a dc f3 3e 2f 3c 10 bf 14 ea 83 3e
       -0.09655709 0.47629243 -0.5634183 0.25764525
000160 da 54 92 be ca d8 36 3d 74 51 ce 3d 78 43 86 bd
       -0.28580362 0.04464034 0.1007413 -0.065558374
000170 60 15 17 3e ac 96 59 3e 76 cd 99 bd 22 f3 45 3e
       0.14754248 0.21248883 -0.07509892 0.19331029
000180 3e 10 ad 3e 02 55 d2 bc 92 6c 5b 3e 05 34 00 3f
       0.33801454 -0.0256753 0.21428135 0.50079376
000190 e0 43 1d 3e 33 46 b2 bc 87 0f f3 3d 49 7a 4c 3e
       0.15357924 -0.02176199 0.11868196 0.19968523
0001a0 de 6a 94 bd 58 0b d8 bc 78 50 14 3f 0e 01 fb 3b
       -0.07246946 -0.026372597 0.57935286 0.007660038
0001b0 3a 57 c9 3d 65 ac a5 3d 6f f5 3a be c7 2b 2f 3e
       0.0983109 0.08089522 -0.18257688 0.17106543
0001c0 4c c4 d5 bd ae c9 18 3e f8 f3 63 3e c3 b1 b8 3e
       -0.10437831 0.14920685 0.22261035 0.3607312
0001d0 e0 3a 99 3e 77 ad a3 bd da 81 38 3e 08 bb de 3e
       0.2992773 -0.0799207 0.18018284 0.4350207
0001e0 ce e8 42 3d b9 73 69 3e 7c 5b 55 3e ed af e0 3e
       0.0475853 0.22798051 0.2083568 0.4388422
0001f0 3b ef a5 3e e3 5e 6e 3e df 3a f2 bd 87 ab 3a bd
       0.3240908 0.23278384 -0.11827635 -0.045573737
000200 90 ad 2e 3e 6e ef 84 bd 7e 40 1b bc 21 2b 66 3d
       0.17058396 -0.0649098 -0.009475825 0.056193475
000210 92 2f 33 be 2c 96 52 3e b0 a3 f0 bd c4 e5 cd 3e
       -0.17498615 0.20565099 -0.11749971 0.4021436
000220 1f b8 4a 3e f0 7c 11 3f 66 4b 5f 3e fa 79 5f 3e
       0.19796799 0.56831264 0.21806106 0.21823874
000230 1c bd b2 bc ea 31 91 3d e5 8f 25 3e 66 3a aa 3d
       -0.02181869 0.070895985 0.16168173 0.0831192
000240 c6 55 b9 3e cc 70 0d 3e 4f 6f 6a bc 70 ce 14 be
       0.36198252 0.1381256 -0.014308765 -0.14531875
000250 43 57 9e bc 2d 5a 8c be b0 e4 de 3d 4a 5d 97 bd
       -0.019328719 -0.2741255 0.108834624 -0.0739084
000260 16 4a 8a 3e d7 42 ca 3a d4 d1 9f 3d f3 08 a0 3b
       0.27009648 0.0015431297 0.078036934 0.0048838793
000270 f9 1b db 3d c5 ff de 3e 0b 17 a1 3e 08 6f 15 3e
       0.10698695 0.43554512 0.31462893 0.14593136
000280 7a 84 83 3e 18 7a 00 be cf a9 50 3f 99 e4 7b be
       0.2568701 -0.12546575 0.8150911 -0.24598922
000290 c2 11 85 3c 9c d9 94 3e c1 c0 ae bd e3 07 90 3e
       0.01624382 0.29072273 -0.08532859 0.28131017
0002a0 42 5f 9f 3e bc 47 a4 ba f0 6c 28 bd 13 4a f0 3e
       0.31127363 -0.0012533586 -0.041119516 0.46931514
0002b0 75 90 b7 3e b7 99 20 bf 80 54 78 3e 9b d5 1d 3f
       0.358524 -0.6273455 0.24250984 0.6165406
0002c0 48 74 b0 3e 6a 1b 37 be 52 f9 01 39 1a e2 5c 3e
       0.34463716 -0.17881551 0.00012395278 0.21570626
0002d0 d4 98 2e bd a1 41 61 3e 6f 06 91 3e 1c d3 1f bc
       -0.042626217 0.21997692 0.2832522 -0.009754922
0002e0 ba 78 ee 3d 35 db b7 3e c0 9c f8 3c 92 47 d1 3e
       0.116441205 0.3590943 0.030348182 0.40874916
0002f0 0d 24 24 bd 0d 89 97 3e 7b a7 6d 3e 9a 3a 04 3e
       -0.040073443 0.2959675 0.2320842 0.1291298
000300 68 38 dd be d4 70 40 3e 58 45 a9 bd 53 b1 6f bd
       -0.43207097 0.1879304 -0.082651794 -0.05851872
000310 2a 2f d0 bd 73 27 22 bd f9 c0 40 be b3 74 f4 3d
       -0.10165246 -0.039588403 -0.18823613 0.11936321
000320 f2 a4 ec 3d d0 9e 28 3e ec 04 a1 be c3 37 39 3e
       0.11554898 0.16466832 -0.31449068 0.18087678
000330 8f 27 b8 3d 2b fc 44 be 32 83 c4 3c 62 48 8e 3e
       0.0899192 -0.1923682 0.02398834 0.277896
000340 64 b6 d0 bd 41 19 0f 3c 2d 2a b6 3e 36 71 ef bd
       -0.10191038 0.008734048 0.35579053 -0.11691515
000350 ef 90 49 bd b2 48 e5 3e 3a 71 cd 3e 09 df f4 3c
       -0.049210485 0.44782025 0.40125448 0.029891508
000360 21 06 98 3e 83 35 1c 3e 73 48 93 3e 52 84 07 3e
       0.29692176 0.15254788 0.28766212 0.1323407
000370 36 a6 6a 3e 38 d1 2c be e1 ea 4a 3d 56 04 92 3d
       0.22914967 -0.16876686 0.049540404 0.07129733
000380 59 b0 b0 bd 3e e4 1f 3e 1e d9 3d be 1a 9b 0c be
       -0.08627386 0.15614411 -0.18539855 -0.13731042
000390 74 9b 43 3d da b9 52 bc 9e 8a 5f 3e 05 81 23 be
       0.047755674 -0.012861693 0.21830222 -0.15967186
0003a0 f5 2e d5 be 8f 26 82 be 22 dd de 3e f0 4c 3f 3e
       -0.41637388 -0.25420043 0.43528086 0.18681693
0003b0 7f 23 ff 3d 64 3a 66 be 52 5a 8a 3e f4 96 9a bd
       0.12457942 -0.22483212 0.27022034 -0.07548323
0003c0 df 61 ea bd 7f 46 3b 3e db 98 8f bd f5 e3 bf 3e
       -0.11444449 0.18288611 -0.07011577 0.37478605
0003d0 54 4a 94 3e 56 2a f2 bd 5d b0 4c 3e c3 90 79 bd
       0.28962958 -0.11824481 0.19989152 -0.06092907
0003e0 81 78 f4 bc d8 2f b6 bd 0a ff d5 be 45 c6 18 3d
       -0.029842617 -0.08895844 -0.41796142 0.03729846
0003f0 e3 e0 e6 3e 29 e4 04 3e 58 d6 86 3e 90 dc d2 bd
       0.4509345 0.12977661 0.26335406 -0.10295975

net.1.running_var f4 [256]
000000 91 c1 3f 3c 6b 85 95 3c dd 53 bf 3c e3 19 85 3c
       0.011703865 0.018252095 0.023355419 0.016247695
000010 2e 4b 4e 3c b8 bc 55 3d d1 54 d7 3d 6b 3f 7f 3c
       0.012591166 0.05218193 0.10514224 0.015579085
000020 77 18 83 3c 13 84 cb 3c 60 f5 96 3c 6c c3 46 3d
       0.016002877 0.024843251 0.01842755 0.048526213
000030 c9 b7 f6 3c c7 da 04 3c e6 76 aa 3c 74 c1 60 3d
       0.030116932 0.008108801 0.020808648 0.05487199
000040 00 3e 06 3d 0c ff 80 3c 53 d9 9c 3c 09 13 cd 3b
       0.03277397 0.015746616 0.019146597 0.0062583727
000050 5d e2 0b 3d d0 a8 0b 3c de be 93 3b 44 58 80 3c
       0.034151424 0.008524135 0.004508837 0.015667088
000060 5e c3 90 3c 93 f2 52 3c 4c 57 16 3c ed c6 d5 3b
       0.017671283 0.012875217 0.009176087 0.006523958
000070 06 d6 22 3c 73 38 fc 3b 46 e7 1b 3c 2e d6 e6 3c
       0.0099387225 0.007697159 0.009515589 0.0281783
000080 9d 73 ba 3d 12 b0 4e 3c e8 70 61 3c 44 b2 18 3c
       0.09104083 0.012615221 0.013759829 0.009319846
000090 dc ea a1 3c cb 49 cc 3c 08 02 13 3c ac ea e1 3b
       0.01976531 0.024937531 0.008972652 0.00689443
0000a0 39 70 aa 3c 22 b9 ac 3c ea 8f 09 3d 37 68 69 3c
       0.020805465 0.021084372 0.033584513 0.014246038
0000b0 65 cd 94 3d 07 3e e5 3c b6 4e 21 3c b0 69 09 3d
       0.072657384 0.027983679 0.009845426 0.033548057
0000c0 70 68 20 3c af 27 9e 3b 25 76 ac 3b 7d 42 86 3c
       0.009790525 0.004826508 0.0052631074 0.016389126
0000d0 ae 44 b6 3c c2 cd 28 3c ef c4 9e 3c e3 01 36 3d
       0.022249546 0.010302963 0.019381015 0.044435393
0000e0 24 b2 af 3c 97 d3 15 3c e5 50 52 3c 53 23 48 3c
       0.021447249 0.009144685 0.01283667 0.012215453
0000f0 bc b8 45 3c f7 18 c5 3c f0 7c 42 3d e2 4c 0d 3d
       0.01206797 0.024059756 0.04748243 0.03449715
000100 7e 79 29 3c 1b 7b c4 3b 77 96 fd 3c 47 36 b8 3c
       0.010343907 0.0059961206 0.030955536 0.022486819
000110 f8 c7 26 3d e2 23 8b 3c 68 71 a3 3c 92 f9 b8 3c
       0.04071805 0.016984884 0.019951537 0.022579942
000120 b9 30 cd 3c ce bc e8 3c ac e5 71 3c 98 aa f2 3c
       0.025047647 0.028410342 0.014764231 0.029622361
000130 76 d4 0c 3c 84 39 0a 3c 00 f3 99 3c e5 9d 1c 3d
       0.0085955765 0.008436564 0.01879263 0.038236517
000140 9b c7 e1 3c 96 e7 bc 3b 06 89 06 3d 64 4c c3 3d
       0.027561 0.005764912 0.03284552 0.09536055
000150 c1 c2 2b 3d b6 d3 36 3d b1 6d 43 3d c0 46 83 3c
       0.04193378 0.044635497 0.04771203 0.016024947
000160 77 ae db 3c 91 87 13 3d b1 90 a7 3c d4 84 73 3c
       0.02681659 0.036017958 0.020454736 0.014863212
000170 8a fd a5 3c c6 a4 03 3c 2b 1c 01 3d c1 59 f0 3b
       0.020262498 0.0080348905 0.031521004 0.0073349182
000180 4c 8f 71 3c 77 a2 30 3c 46 56 e9 3c 65 11 45 3c
       0.014743637 0.010780922 0.028483521 0.012028073
000190 ed 7f 53 3d f2 4d ab 3c a3 4b 3d 3c dc 75 ab 3c
       0.05163567 0.02091119 0.011553678 0.020930223
0001a0 d5 43 25 3c 65 e9 6f 3c a2 58 d9 3c 32 90 36 3c
       0.010086973 0.014643048 0.026531521 0.011142777
0001b0 56 34 7e 3c d8 11 11 3c c8 4a 0d 3d 63 15 f4 3c
       0.015515408 0.008854352 0.034495145 0.029795354
0001c0 6b f6 c0 3c de fb 57 3c a6 61 35 3e 5c db 26 3d
       0.023555001 0.013182608 0.17713031 0.04073654
0001d0 33 24 4c 3c bc ca 10 3c f9 b7 e6 3b 44 90 07 3e
       0.012459802 0.008837398 0.007040974 0.13238627
0001e0 59 f9 95 3c 89 d2 2e 3c 5a 7f 5c 3d c0 36 2d 3c
       0.018307375 0.010670313 0.05383239 0.010572135
0001f0 f5 2f 74 3c cc a8 0d 3c 3b 64 75 3c bb 9c c8 3c
       0.014904012 0.008646201 0.01497751 0.024488797
000200 fb bb be 3c 31 76 35 3c fc 76 1e 3c 7c 58 23 3d
       0.023282995 0.011075542 0.009671923 0.039879307
000210 0c dc cf 3c 32 94 aa 3c 5f 7c 9d 3c a0 91 60 3c
       0.025373481 0.020822618 0.019224344 0.013706595
000220 f9 b3 09 3c d3 3a 3d 3d 2f 2f 2d 3c 9c 10 b6 3b
       0.008404725 0.046198677 0.0105703315 0.005556179
000230 69 7d 81 3d f8 68 9e 3d ae 49 68 3c e5 f1 09 3e
       0.06322748 0.07734865 0.014177723 0.13471182
000240 2c 20 b4 3c 37 ba 38 3c 30 e2 3f 3c 87 3b 26 3c
       0.021987997 0.011274866 0.011711642 0.010146028
000250 53 db 80 3c e0 e4 4d 3c 3e 60 0b 3d 28 73 98 3c
       0.015729582 0.012566775 0.03402733 0.018609598
000260 fc 14 82 3c 9f de 25 3c bb 44 1c 3c d5 8b eb 3b
       0.015879147 0.010123878 0.009537871 0.0071883
000270 7d 65 99 3c 14 e5 9f 3c ae e4 5d 3c c8 47 05 3c
       0.018725151 0.019518413 0.013543291 0.00813479
000280 23 31 99 3c ec be da 3b 7a 61 31 3d b9 53 11 3d
       0.018700188 0.0066755917 0.04330585 0.035480235
000290 c1 ba fa 3b 6d f9 1b 3c 83 58 2b 3d d4 2d ec 3c
       0.0076516573 0.009519917 0.04183246 0.028830446
0002a0 46 a0 9c 3c 97 72 b6 3c fa 72 86 3c 08 30 41 3d
       0.019119393 0.022271438 0.016412247 0.047164947
0002b0 d0 e9 15 3c 9a a6 24 3d 9b b1 4c 3c e0 cf a9 3d
       0.0091499835 0.040197946 0.012493516 0.08291602
0002c0 7d a4 5d 3d 97 1c 28 3c 4e 9a 2b 3c f6 34 73 3c
       0.054111946 0.010260723 0.010473801 0.01484417
0002d0 fd ea 57 3c 9d b5 e7 3b 10 b4 18 3c 07 81 9c 3c
       0.013178584 0.0070712105 0.009320274 0.019104494
0002e0 a6 00 2b 3c a3 d3 31 3c 97 20 70 3c c3 d3 9e 3c
       0.010437166 0.010853681 0.0146562075 0.019388085
0002f0 3e d7 07 3c 04 c7 12 3d e0 e4 b3 3c 32 57 df 3c
       0.008291064 0.035834327 0.021959722 0.027263258
000300 2e 16 04 3d 99 aa 44 3c d1 91 03 3d e7 e8 70 3c
       0.032247715 0.012003564 0.032121483 0.014703966
000310 7e ec 06 3c bf 85 11 3c 32 fe b7 3c 2b 8a 7e 3c
       0.008235095 0.008881985 0.022460077 0.0155358715
000320 bc f3 da 3c 0e 09 46 3c 8d ae 98 3c 9a 57 0d 3c
       0.02672755 0.01208712 0.01863792 0.008626843
000330 be 3f 8f 3c d7 e6 36 3c e4 09 a8 3c 87 70 80 3c
       0.01748645 0.011163435 0.020512529 0.015678657
000340 d6 18 f3 3b a4 59 de 3c 0e 49 d1 3c f5 b6 ba 3c
       0.007418732 0.027142353 0.02554753 0.022792319
000350 46 ff 42 3c 8b a2 35 3c 98 20 b7 3c 0a 7f be 3b
       0.011901682 0.011086117 0.02235441 0.005813484
000360 7e 4e dd 3c 75 66 c4 3c 42 5b 4b 3d 94 62 89 3d
       0.027014967 0.023974637 0.049647577 0.067082554
000370 84 4b a6 3d d7 c5 84 3c 74 08 9b 3c ec 72 39 3c
       0.08119872 0.016207619 0.01892493 0.011318903
000380 6a 9f 53 3c 64 1d 12 3d 39 a4 a5 3c a8 9f 00 3d
       0.012916425 0.03567256 0.020219909 0.03140226
000390 71 8a a2 3c a9 a2 dc 3b af 3b 00 3d 9c 64 c8 3c
       0.019841405 0.006733258 0.03130692 0.024462037
0003a0 ec 94 aa 3c a4 cf c3 3c fb 5c 6a 3c bf 33 c6 3b
       0.020822965 0.023902722 0.014304395 0.006048649
0003b0 4d 8e 94 3c 57 79 b4 3c f3 de 71 3c a4 d8 f6 3b
       0.01813426 0.022030516 0.014762628 0.00753315
0003c0 ac df 6f 3c 7e ab 8e 3c d4 a2 c6 3c 08 bb 33 3c
       0.01464073 0.017415758 0.024247564 0.010969885
0003d0 d9 2b 23 3c fa 21 20 3c 97 50 eb 3c c0 70 e4 3c
       0.009959185 0.009773726 0.028724952 0.027885795
0003e0 60 44 16 3c 05 85 22 3c da 03 0a 3d 8c b6 8b 3c
       0.009171575 0.00991941 0.03369508 0.017054819
0003f0 82 75 4a 3d e6 9f fa 3b 54 78 ca 3c 3a e7 22 3c
       0.04942847 0.007648456 0.02471558 0.009942824

net.4.weight f4 [128, 256]
000000 24 e4 71 bd 3c 32 b7 bc 12 36 df 3a 4b ec 8f bd
       -0.059055462 -0.02236282 0.0017029664 -0.07027491
000010 28 53 96 3c a3 54 73 bd dd 76 2e 3c cc 1a 03 3a
       0.018350199 -0.059406888 0.010648456 0.00050012465
000020 e1 23 82 3c d7 41 9e bd 0b 91 6e 3d 3d 50 d2 bd
       0.015886249 -0.07727402 0.058243793 -0.102692105
000030 ad 0a 00 bd 59 0f 43 bd 41 d8 f4 bb bf 13 09 bb
       -0.03126018 -0.04762206 -0.0074720685 -0.002091631
000040 44 47 18 bc 3a 0d 38 bd 87 5f be 3c f9 07 96 bc
       -0.009294335 -0.04493449 0.02323891 -0.018314349
000050 6e 78 9c bd 02 b0 1d 3d 05 e5 44 bc 8c 5b bd 3c
       -0.07640158 0.038497932 -0.012017493 0.023114942
000060 97 bd 86 3b 25 f4 38 3d 23 f3 b2 3d 38 ef 67 3d
       0.0041119563 0.04515471 0.08737781 0.05662462
000070 d3 4d 8a 3d 9d 42 2c 3d 95 b6 87 bd fe 1e f6 39
       0.06753125 0.042055715 -0.06626622 0.00046943867
000080 f1 6f cd bb a0 85 b1 bc 5e 98 b1 bc 1a 03 94 3c
       -0.006269448 -0.021670163 -0.0216791 0.018067885
000090 10 0f c9 3b de 98 a0 3c 1f a7 87 3d f1 9e 2a bd
       0.006135829 0.019604143 0.06623673 -0.041655485
0000a0 ae e5 62 3d 47 92 3a 3d b6 9b c6 bc d1 54 55 bd
       0.05539482 0.045549657 -0.02424417 -0.05208284
0000b0 2a ff a4 3a 5e 7f a6 bb 06 ee bb 3a 0c bd b6 3c
       0.0012588252 -0.0050811013 0.0014337904 0.022306941
0000c0 9f 63 1b bc 29 e3 2f bd bb 62 de bd 11 03 91 bc
       -0.009484201 -0.042941246 -0.10858675 -0.017701657
0000d0 68 94 fd bb 4f ae 4f bd f7 76 e7 3c 86 a9 95 bc
       -0.0077386387 -0.050703343 0.028254969 -0.018269312
0000e0 5f 1d 88 bc 3d 9a e3 3c a3 74 62 bd 2c 76 83 3d
       -0.016615568 0.027783507 -0.055287015 0.06419024
0000f0 ee bb 9d 3b bc a1 c5 3c d4 cc 16 bd b7 47 d8 3b
       0.0048136627 0.024124973 -0.036816433 0.006600346
000100 49 93 3d bc 0f 1a 58 3c 40 37 0a bc cb 8f 67 bd
       -0.01157076 0.013189807 -0.008436024 -0.056533616
000110 48 63 a9 3c aa b1 d8 3c 25 2c 5c bb 25 0a 8b bd
       0.020677224 0.026451904 -0.0033595648 -0.06789044
000120 a4 17 5d bc 04 f1 db bb 8f d2 02 bd d0 d3 85 3d
       -0.013494406 -0.006712081 -0.031939086 0.06534541
000130 71 0a 52 bd 14 62 52 bd 2e 4e 4f bc 57 e2 97 3d
       -0.05127949 -0.051363066 -0.012652917 0.07416218
000140 ff 91 81 bd 4b 65 b4 3c 62 8e 3c bd c8 87 09 bd
       -0.06326675 0.022020957 -0.046034224 -0.033576757
000150 a7 3d d7 bd 77 e8 fd bb f3 cd 6c bc 8c 0b 4d 3d
       -0.10509806 -0.0077486592 -0.014453399 0.05005984
000160 f0 d0 3d bd a8 06 1b bd 5d 9b 28 bd 94 9d 57 bc
       -0.046341836 -0.037848145 -0.04116379 -0.013160128
000170 a5 4e 2c bd 8f 92 80 3d 96 b5 0b 3d 31 25 9b 3b
       -0.04206719 0.06277954 0.03410872 0.004734658
000180 ab 39 6d 3c 27 cc 34 bd 8a 7b 3b 3c a3 e6 4c 3d
       0.014479081 -0.044140007 0.011443028 0.05002464
000190 4d c3 18 bc 6a d9 b5 3c 24 be 3b 3c eb 96 1b bd
       -0.009323907 0.022198398 0.011458907 -0.037985723
0001a0 27 48 c2 bc 48 ab e7 bc 2c d6 a0 bc a3 2e 57 bb
       -0.023716046 -0.028279915 -0.019633375 -0.0032834194
0001b0 51 2e 65 3d f9 ec 0a 3d 07 62 89 bd 7b 30 29 bd
       0.055952374 0.0339174 -0.0670815 -0.041306
0001c0 eb ab de bc 73 46 b7 39 d6 38 2f bd 99 f6 51 bd
       -0.027181586 0.0003495697 -0.042778812 -0.051260564
0001d0 4e 16 8b bd 24 b9 f0 3c 30 7a 25 3b 49 ba 21 bc
       -0.06791364 0.029385157 0.0025249831 -0.009871074
0001e0 66 49 b5 3d 3c 0b cf 3d d9 f1 97 3c 81 5e 79 bb
       0.0885189 0.10109565 0.01854794 -0.0038050713
0001f0 7c b6 bc bc 91 06 87 bc 1f 15 23 bd b9 31 62 bd
       -0.023036234 -0.016482623 -0.039815065 -0.0552232
000200 f1 9c 0c 3d 87 b0 83 bd e2 0d 2b 3d 16 1f 8b bd
       0.03432936 -0.06430154 0.041761287 -0.067930385
000210 c3 cb 66 bd b6 3a 9a 3c 36 d7 22 3d 11 2e 5e bd
       -0.056346666 0.018826824 0.039756022 -0.05424315
000220 e4 3a 24 bd af cc 73 bb 2c 39 c3 3b e7 f7 81 bd
       -0.040095225 -0.0037200858 0.005957743 -0.06346112
000230 13 f7 9b ba 6d 71 b6 bd e8 f4 da 3a b8 44 d6 bc
       -0.0011899195 -0.08908353 0.0016705068 -0.026155815
000240 3c 15 90 bb 6b da ec bc af a4 93 bc 0b 51 6e bd
       -0.0043970626 -0.028912744 -0.018022863 -0.058182757
000250 78 c3 25 3d 6d bc 8c 3c 52 f4 ee 3c 9e c2 9a bd
       0.040469617 0.017179692 0.029169235 -0.075566515
000260 21 7f f0 bb 85 64 db bc e3 6c 57 3d 29 e3 0c bb
       -0.0073393737 -0.02678133 0.052594077 -0.0021497703
000270 63 37 05 bd 00 8a cb 3d 24 d0 22 bd f1 74 93 bc
       -0.032523524 0.09938431 -0.03974928 -0.018000098
000280 77 cc b0 bc 8d a8 f2 3b 87 64 01 3d f0 40 b4 3c
       -0.021581871 0.0074053467 0.03159001 0.02200362
000290 cd 93 32 bd 33 da 16 bd 6b ef 22 3d 37 60 f9 3b
       -0.043597985 -0.036829185 0.039779108 0.0076103467
0002a0 4d 2a bd b9 42 58 ce bb 2d bd fa bb 80 33 e5 bc
       -0.00036080406 -0.0062971422 -0.007651946 -0.027978659
0002b0 d0 a7 ed 3c 2a 10 18 bd 80 20 90 bc 76 34 8a bc
       0.029010683 -0.03712479 -0.017593622 -0.016870718
0002c0 73 56 4c 3d 04 5b dc bc 55 f6 14 bb f9 be 25 3d
       0.049887132 -0.026898868 -0.0022729833 0.04046533
0002d0 89 5e 33 bd f1 79 2d 3d 1a 36 35 bc c5 12 2f 3c
       -0.043791328 0.04235262 -0.011060262 0.010685627
0002e0 a9 42 0c 3d b2 ef a1 3d 24 97 40 bd 5a 13 6f bd
       0.03424326 0.079070464 -0.04701914 -0.058368064
0002f0 39 d6 a0 bc ad de 90 bd 6a 74 c5 bc 45 c9 6d bc
       -0.0196334 -0.07073722 -0.024103362 -0.014513318
000300 a3 c5 d8 bb 03 7a 8f bc 1c 01 a2 bc 6b 11 d6 3b
       -0.006615357 -0.017514234 -0.01977592 0.006532838
000310 d5 57 48 bc ae f1 ce 3c 35 c5 10 bc 94 5a 5b 3d
       -0.012227972 0.025261726 -0.00883608 0.05355318
000320 fc e7 63 bd 2e 11 45 bc 9b fa d3 3c 82 47 bb 3c
       -0.05564116 -0.012028022 0.025876334 0.022861246
000330 6f fc 71 bc a8 47 e4 bc 5f e7 48 bd 1e 90 31 3d
       -0.0147696575 -0.0278662 -0.049048778 0.04335033
000340 df 49 5e 3d 29 7b fc bc 2a d3 1f 3d cc b1 60 3d
       0.054269668 -0.030820446 0.03901974 0.05485706
000350 bc 28 7f bc cc d0 43 3b 7f 28 36 3d 20 61 3b 3d
       -0.015573677 0.0029879091 0.044472214 0.045746922
000360 26 f9 ae bb 06 13 78 bd 8e a0 d7 3b a3 6c 18 bd
       -0.0053397594 -0.060565017 0.006580419 -0.03721298
000370 75 9a ac bc 22 8b 55 3c 24 35 66 3d 95 8b a5 bd
       -0.021069745 0.01303366 0.056203023 -0.08083264
000380 5d 30 aa bd a8 88 10 bd bb 3f 2e 3d 63 6f 80 3d
       -0.08310006 -0.035286576 0.042541247 0.06271245
000390 87 80 af 3c 81 02 4e 3d 75 8a 7d bc cc 51 31 bd
       0.021423591 0.050295357 -0.015474905 -0.0432909
0003a0 b1 5e 93 3c 1f a7 81 3d a5 1d 9b bc 19 6f 48 3d
       0.017989488 0.06330704 -0.018935034 0.048934076
0003b0 86 11 19 bc 31 42 6c bd 50 15 8c 3c fa 9b b7 bc
       -0.009342557 -0.057680313 0.017100006 -0.022413243
0003c0 dc bd 83 3d 7e 6f e8 bb fe 0d 03 3b 68 98 4f 3a
       0.06432697 -0.007093369 0.0019997354 0.00079191336
0003d0 cd 18 d0 3d eb dc 61 bd 39 ab 5b bd 59 76 f4 3c
       0.101609804 -0.055142324 -0.053630088 0.029841589
0003e0 2d c6 1f bd 23 4c e2 3c 09 aa 95 bb 87 0c b8 bc
       -0.039007355 0.027624195 -0.004567389 -0.022466911
0003f0 6b 8f 82 3d 8c 93 ab bc 15 51 c6 ba cf 65 88 3d
       0.06375011 -0.02094438 -0.0015130366 0.066600434
